[2018-10-10 19:39:41,902 INFO] Loading train dataset from ../TwoStageDecoder/data/cnndm/CNNDM.train.1.pt, number of examples: 126095
[2018-10-10 19:39:42,215 INFO]  * vocabulary size. source = 50004; target = 50004
[2018-10-10 19:39:42,215 INFO] Building model...
[2018-10-10 19:39:45,658 INFO] NMTModel(
  (encoder): RNNEncoder(
    (embeddings): Embeddings(
      (make_embedding): Sequential(
        (emb_luts): Elementwise(
          (0): Embedding(50004, 128, padding_idx=1)
        )
      )
    )
    (rnn): LSTM(128, 256, bidirectional=True)
    (bridge): ModuleList(
      (0): Linear(in_features=256, out_features=256, bias=True)
      (1): Linear(in_features=256, out_features=256, bias=True)
    )
  )
  (decoder): InputFeedRNNDecoder(
    (embeddings): Embeddings(
      (make_embedding): Sequential(
        (emb_luts): Elementwise(
          (0): Embedding(50004, 128, padding_idx=1)
        )
      )
    )
    (dropout): Dropout(p=0.0)
    (rnn): StackedLSTM(
      (dropout): Dropout(p=0.0)
      (layers): ModuleList(
        (0): LSTMCell(1152, 512)
      )
    )
    (Two_stage_rnn): StackedLSTM(
      (dropout): Dropout(p=0.0)
      (layers): ModuleList(
        (0): LSTMCell(512, 512)
      )
    )
    (attn): GlobalAttention(
      (linear_context): Linear(in_features=512, out_features=512, bias=False)
      (linear_query): Linear(in_features=512, out_features=512, bias=True)
      (v): Linear(in_features=512, out_features=1, bias=False)
      (linear_out): Linear(in_features=1024, out_features=512, bias=True)
    )
  )
  (generator): CopyGenerator(
    (linear): Linear(in_features=512, out_features=50004, bias=True)
    (linear_copy): Linear(in_features=512, out_features=1, bias=True)
    (softmax): Softmax()
    (sigmoid): Sigmoid()
  )
)
[2018-10-10 19:39:45,659 INFO] encoder: 7322624
[2018-10-10 19:39:45,659 INFO] decoder: 38616405
[2018-10-10 19:39:45,659 INFO] * number of parameters: 45939029
[2018-10-10 19:39:45,663 INFO] Start training...
[2018-10-10 19:40:25,397 INFO] Loading train dataset from ../TwoStageDecoder/data/cnndm/CNNDM.train.1.pt, number of examples: 126095
…
